data.pth (torch, 7039 bytes, 6 tensors)

l1.weight f4 [8, 90]
000000 e0 07 e1 3e 2f 38 81 be e6 5c 8c be 76 e7 39 be
       0.4395132 -0.25238177 -0.27414626 -0.18154702
000010 4a fc 1a bc 02 12 66 3d 51 3a f7 3e ed 45 05 3e
       -0.009459564 0.056169517 0.4828668 0.13014956
000020 3a 0d 02 bd dd a2 fc be 46 b3 18 bd e6 71 1a bf
       -0.031750895 -0.49343005 -0.037280343 -0.60330045
000030 95 53 c1 3e d2 15 24 3d a8 96 2f be 99 d9 3c be
       0.3775908 0.040059872 -0.17147315 -0.18442382
000040 a7 52 de 3e 61 ce b5 3e 35 12 59 bc e3 9c ca 3e
       0.43422434 0.35509017 -0.01324897 0.3957282
000050 2b 22 65 3e 8f 79 ac bd 1b f2 8d be 43 5f 8c be
       0.22376315 -0.08421623 -0.27723774 -0.2741643
000060 57 d0 1c be 38 02 65 be 08 58 03 3f 24 09 c7 bd
       -0.1531385 -0.22364128 0.513062 -0.0971854
000070 d2 87 fe 3c e1 c9 0d bf 05 62 dd 3c f8 1c 00 3e
       0.031070624 -0.5538617 0.027024278 0.1251105
000080 1e b1 b1 3e 19 a1 27 3f 02 1b 0a 3f f7 a6 62 3e
       0.34705442 0.6548019 0.5394746 0.22134005
000090 0e bf e7 3c 76 70 49 bc 4e 1f 3b 3e e9 ca 69 3f
       0.028289344 -0.012294879 0.1827366 0.9132524
0000a0 de 83 3a 3c 8c cb 88 3e e0 5a a4 bd 27 7d b9 3e
       0.011383979 0.26717794 -0.080251455 0.36228296
0000b0 29 92 cb be de b3 9c be 34 d8 e5 3d 2e 3d 26 be
       -0.3975995 -0.30605978 0.11222878 -0.16234276
0000c0 51 69 9f be ca 76 ce 3e f6 bd 28 3f 1a f0 1c be
       -0.31135038 0.40325004 0.6591486 -0.15325966
0000d0 69 cc a1 3e 7a 88 a5 bd 5d 4d 3e be f7 09 53 be
       0.31601265 -0.080826715 -0.18584199 -0.2060927
0000e0 fa a7 19 be fb 29 0d be 82 4f c7 3e 4c b7 22 be
       -0.15005484 -0.13785546 0.38927847 -0.15890235
0000f0 e2 41 d5 3e 4e 70 21 be f3 f2 1f bf 1d c0 fd be
       0.41651827 -0.15765497 -0.62480086 -0.49560633
000100 1a ff c7 3e 95 a3 4b be 92 be 3a bc bd a2 8c 3d
       0.39061815 -0.1988662 -0.011397975 0.06866977
000110 00 33 91 be cb db 25 be e5 0a 92 3e ef 31 f8 be
       -0.28359222 -0.16197126 0.28523937 -0.48475596
000120 38 48 03 bd be 2d 55 be e1 c6 c1 3e 5c 81 85 3d
       -0.032051295 -0.2081823 0.37847045 0.06518814
000130 93 63 43 3f b2 bc 89 3f 93 a0 0b 3f c3 1b e6 bd
       0.76323813 1.076071 0.5454189 -0.11235764
000140 66 17 63 be bc 10 13 be 63 a8 0b 3e 17 13 dd 3e
       -0.22176895 -0.14361852 0.13638453 0.43178627
000150 da c5 cf 3e 54 56 c9 3e 57 0d fc 3e 1d f4 cd bd
       0.40580636 0.39323676 0.49228927 -0.100563265
000160 2c a4 61 be 74 2e 04 3f 5f 55 b1 be cd 74 d8 3d
       -0.22035283 0.5163338 -0.34635445 0.10569153
000170 26 32 3d 3f 69 de 9a 3e 3c c5 73 be 60 37 11 bf
       0.73904645 0.3024781 -0.23805708 -0.5672512
000180 65 f1 0e 3e 62 85 d9 3e 65 6d d8 3e 57 2e 44 3f
       0.13959272 0.42484576 0.4227096 0.7663321
000190 17 11 15 3f d8 eb 10 be bd f5 05 3f 6f d7 ca 3e
       0.582292 -0.14152467 0.5232809 0.39617488
0001a0 c4 fc 14 be 0e 3c e2 3e 2c ec 07 3f b0 e3 44 3e
       -0.14549547 0.44186443 0.53094745 0.19227481
0001b0 fc 1f a9 be 23 36 b9 3e 29 7b 08 3f 71 9c c0 3e
       -0.33032215 0.36174116 0.5331293 0.37619355
0001c0 cd d6 d5 3e ef 98 38 3f 53 cf 82 3e 42 46 0d 3f
       0.41765442 0.7210836 0.255488 0.5518533
0001d0 fb 19 3c 3f 03 d7 bf 3e 50 ef 82 be b4 2f 2f be
       0.73477143 0.37468728 -0.25573206 -0.17108041
0001e0 17 a4 e4 3e f4 fa 15 bf a3 7f 20 3f e9 7b d5 3e
       0.4465644 -0.5858605 0.6269476 0.41696098
0001f0 b2 bd b0 be 64 fd 15 bf 29 d7 7a be c3 c5 d4 3e
       -0.34519726 -0.5858977 -0.2449614 0.4155713
000200 6c 02 16 bf aa 73 11 3f f5 24 bd 3e fd 1e 86 3e
       -0.58597445 0.56817114 0.36942258 0.26195517
000210 99 46 2c 3f 3e c7 b8 3d a9 22 47 be 6a 92 c6 3e
       0.67295223 0.090223774 -0.19446816 0.3878358
000220 5c 13 e6 3e db 99 c0 3e a6 36 10 be 14 b3 97 3e
       0.44936645 0.37617382 -0.14083347 0.29628813
000230 db 26 bf 3e 06 c5 82 3e 63 d7 1a 3e c5 05 d2 3e
       0.37334332 0.25540942 0.15121226 0.41020027
000240 cc fb 7b 3c e7 f0 91 bd b5 95 ef bd d6 30 a4 3e
       0.015379857 -0.071260266 -0.11698476 0.3206851
000250 a1 68 02 3f f0 a2 6a 3e 0a 22 5b 3f 7e 2f 52 bd
       0.509409 0.22913718 0.85598814 -0.051314823
000260 8d 6d 8b 3e cc c5 53 3f 16 00 c1 3e 7a f5 14 3f
       0.27232018 0.8272369 0.37695378 0.5818707
000270 f5 d4 2c 3e 9c 90 25 3f 81 e8 06 3f e6 bf c9 3e
       0.16878112 0.6467378 0.5269852 0.3940422
000280 7a de 75 3c ab 92 a1 bd 6a 0e cc 3e bf 21 e9 3d
       0.015006656 -0.07889303 0.39854747 0.1138339
000290 35 83 14 3f ae 4b 69 3e 7c 55 1e be b5 f7 54 bd
       0.58012706 0.22782776 -0.15462297 -0.051994044
0002a0 b7 ed a6 be c5 da ad be a7 d3 37 bd 45 87 ca bc
       -0.32603237 -0.3395597 -0.04487958 -0.024722705
0002b0 1f db 84 3e 08 bf 2c 3e 04 81 c7 3e 64 ca 9c 3e
       0.25948426 0.16869748 0.3896562 0.30623162
0002c0 95 d6 49 3f 81 cd ea 3e 75 28 81 3e 49 94 3d 3e
       0.7884305 0.45859912 0.2522618 0.18513598
0002d0 47 e3 13 be 2b f2 f0 3e 12 be 4b 3f 62 70 5c 3e
       -0.14442168 0.4705976 0.795869 0.21527246
0002e0 1b a5 95 3e f5 e6 42 bb db 12 bc ba 2e ca bd 3e
       0.29227528 -0.0029739712 -0.0014348881 0.37068313
0002f0 85 89 6c 3e 58 40 6a 3e 4c 5c 03 be b9 38 d1 bd
       0.23099335 0.22876108 -0.12828177 -0.10215897
000300 87 ac fc 3e 40 a3 b8 3e 61 99 ce 3d b6 4d e8 3e
       0.49350378 0.3606205 0.100878485 0.4537179
000310 c3 28 8d 3e 8f d7 1b 3f da b7 a0 3e 48 5b f9 3e
       0.2757016 0.6087579 0.31390268 0.48702455
000320 b2 e2 81 3e 01 88 93 3e af 3b bf 3e 6a ec 4c 3f
       0.25368267 0.288147 0.37350222 0.8004824
000330 d5 b0 0c 3f 53 6e 2d 3f d6 70 02 3f c1 58 3e 3e
       0.54957324 0.67746466 0.50953424 0.18588544
000340 73 c6 bd 3e 1b 27 69 be fc 84 ec 3e 22 7e 1f 3f
       0.37065467 -0.22768824 0.4619521 0.6230184
000350 bf 36 a8 3e 45 5f 42 3e 2a f1 c9 be 24 14 09 3f
       0.32854268 0.18981655 -0.39441806 0.5354636
000360 f2 ba 8f 3e e7 db 05 3e c9 55 ff 3e 6c 0f 35 3f
       0.28072315 0.13072167 0.49870136 0.70726657
000370 83 b8 1e 3f b3 10 75 3e 5f 03 1a be 76 6d da 3e
       0.6200029 0.23932151 -0.15040348 0.42661637
000380 db 2d 24 be ef 62 10 3f f6 f0 8e 3e e8 bb 23 3f
       -0.16033117 0.5640096 0.27918214 0.639586
000390 21 be 08 be 33 b0 0b 3f d3 69 26 3f d9 a5 dd 3e
       -0.13353778 0.54565734 0.65005225 0.43290594
0003a0 18 57 91 3e 8e dd 13 3f e2 a7 0b 3f cc b5 e5 3d
       0.2838676 0.5775994 0.54553044 0.112163156
0003b0 26 07 4f bd 10 78 11 3f fe 7c cd 3e 69 82 f3 3e
       -0.050543927 0.56823826 0.40134424 0.47560433
0003c0 9d b0 02 3f 57 90 c9 3e 07 67 6a 3f 22 2d 3a 3e
       0.5105074 0.39367935 0.9156346 0.1818128
0003d0 07 e8 83 3e 92 a1 02 3f 19 55 a7 3e 89 8c 43 3e
       0.2576296 0.51027787 0.32682112 0.19096579
0003e0 d1 69 81 3e 40 2b 35 3f a4 bb 98 3e f4 73 ec bd
       0.25276044 0.7076912 0.29830658 -0.11545554
0003f0 18 4b a9 3e de a0 96 3e 8c cc c2 3e 1c 9a 9b 3e
       0.33065104 0.29419607 0.38046682 0.30391014

l1.bias f4 [8]
000000 da 6f 49 3f ee 00 16 3f dd 7d 5e 3f e3 3e 2b 3f
       0.78686297 0.5859517 0.869108 0.6689283
000010 f4 de 91 3f bc 35 5e 3f d2 7b 89 3f 65 49 13 3f
       1.1396165 0.8680074 1.0740912 0.57533866

l2.weight f4 [8, 8]
000000 f6 15 85 3f 8a c7 45 3e 81 a4 06 bf 38 08 a8 3f
       1.0397327 0.193144 -0.52594763 1.3127508
000010 4d 74 86 3e 81 0e 46 3f a0 f6 1c 3e cc 56 7d 3f
       0.26260605 0.7736588 0.15328455 0.98960567
000020 3b e0 90 bd 89 37 8b 3f 26 27 46 3f 85 f9 82 3f
       -0.070740186 1.0876323 0.77403486 1.0232397
000030 9e 0d 4b bf 01 9a ab bd 3a 89 7d bf 68 0e 4e 3f
       -0.79317653 -0.08378983 -0.99037516 0.8049073
000040 b5 b1 60 3f 21 7a 91 3f 09 db 80 3f 23 c4 5f bf
       0.8777116 1.1365396 1.0066844 -0.87408656
000050 39 ac c8 be d9 9e 2e 3f 41 65 1b bf ef 7e 92 3f
       -0.39193895 0.6821113 -0.60701376 1.1444987
000060 3e a2 bc be 81 f0 80 3f 20 2c 71 3f bb 7e 7f bf
       -0.3684253 1.0073396 0.94207954 -0.9980275
000070 b1 4a ae 3f 75 24 95 be 27 69 fe be 70 5e b4 be
       1.3616544 -0.29129377 -0.496896 -0.352283
000080 11 11 96 3f cb 9b a3 be 0d df 6c 3f 93 47 56 bf
       1.1723958 -0.31954798 0.9252785 -0.83702964
000090 2c 69 82 3f 87 33 95 3f 8d 83 95 3f b1 81 b4 be
       1.0188346 1.165635 1.1680771 -0.35255197
0000a0 d1 28 2a 3c 20 e2 a9 be 47 5d 24 3e 1e a0 b1 be
       0.010385708 -0.33180332 0.16051207 -0.34692472
0000b0 90 ee f8 bd 41 5a 3e be 44 60 8e 3e c7 ba 72 3e
       -0.12154877 -0.18589117 0.2780782 0.23704062
0000c0 15 f4 81 bf a9 13 42 be 80 bf 7e 3f c0 4b 24 3f
       -1.0152613 -0.18952812 0.99510956 0.64178085
0000d0 81 66 6f 3f b3 ba 9f be 86 0c bf 3f 08 a7 4b bf
       0.93515784 -0.31197128 1.4925697 -0.79551744
0000e0 7d ce 8c bf 1c 59 6d 3f f7 13 4f 3f 23 9c 90 3f
       -1.1000515 0.92714095 0.8088984 1.1297649
0000f0 fd 92 1d 3f e0 91 80 bf 58 87 3d be ea 74 9a 3f
       0.6155241 -1.0044518 -0.18508661 1.2066929

l2.bias f4 [8]
000000 75 ed 7c 3e cc a7 fd 3d 7f 21 b7 3e 9f 73 85 3c
       0.24699958 0.1238552 0.35767743 0.016290484
000010 cf 2e 13 3f b8 26 b4 be 33 7e 69 3f 3e f8 dd 3e
       0.574933 -0.3518579 0.9120819 0.43353456

l3.weight f4 [14, 8]
000000 eb b6 a6 bf a5 00 67 3e be b2 82 3e 8b 9e 08 3f
       -1.3024572 0.2255884 0.25526994 0.5336692
000010 b1 c8 fa be 7c d3 41 39 74 3f 19 3d 18 4e b7 3e
       -0.4898124 0.00018484698 0.03741403 0.35801768
000020 e8 82 3a 3e 44 e6 0d 3f d6 48 a2 3c d2 c8 c6 bf
       0.18214 0.5542948 0.019810122 -1.5530035
000030 fe ef a6 bf 8b 3d d3 bd c1 98 b3 3e 2e 46 9e 3e
       -1.304199 -0.10314473 0.3507748 0.30912918
000040 69 a5 f2 bd d7 d0 e3 3e a4 e4 00 3f 2a 54 fa 3d
       -0.11847956 0.4449527 0.5034888 0.12223084
000050 6d f0 ae bf 59 62 bf bd fe bb af bf 41 6c 9c 3e
       -1.3667122 -0.0934493 -1.3729246 0.3055134
000060 97 bd 75 3e dc 1b 2b bf 8d 07 9d bf 74 c2 85 bf
       0.23998104 -0.66839385 -1.2267929 -1.0449967
000070 fb f2 03 3e ea 2e 8a 3e 11 71 25 3f 5f e7 2d 3f
       0.12885658 0.26988918 0.6462565 0.6793117
000080 76 a5 17 bf 90 ec 73 bf b5 6a 9a be b5 b0 9e be
       -0.5923685 -0.9528284 -0.30159536 -0.30994192
000090 4e 50 61 3f 16 5e fc 3d b9 51 54 3f f6 c5 ca bf
       0.8801316 0.12322633 0.829372 -1.5841663
0000a0 54 28 c8 bd 2b 52 0a 3f a0 a5 1a 3f 3c 95 9a bf
       -0.09773317 0.5403163 0.60408974 -1.2076793
0000b0 0e 75 45 3e c3 6d 24 3e d6 97 7d bf 37 d4 83 be
       0.19282934 0.16057496 -0.9905981 -0.25747845
0000c0 d5 94 22 bf 7b 5a 8d be 16 7d 8c bd e6 54 ed be
       -0.6350835 -0.27608094 -0.06859796 -0.46353835
0000d0 04 98 1d bf d3 d1 b3 3d 71 b2 76 be 7c 63 27 bf
       -0.6156008 0.08780255 -0.24091507 -0.65386176
0000e0 a2 db 0e bd cd f6 af be 29 ce d0 3d 74 7a 0b 3f
       -0.034877427 -0.34367982 0.10195572 0.54483724
0000f0 81 b6 a1 3e b8 8e 83 3e 51 86 3f bf 1a 92 60 be
       0.31584552 0.25694823 -0.74814326 -0.21930733
000100 7d 2a ef bf ed f8 bf bf 60 7b 2d be 85 52 46 3f
       -1.8684841 -1.4997841 -0.16941595 0.77469665
000110 79 fa bb 3d 03 5d 9d 3e 7e 75 10 3f c6 90 9a 3e
       0.09178633 0.30735025 0.5642928 0.30188578
000120 8b f4 85 bf b4 ad e6 be e3 91 c2 be 24 1a 04 be
       -1.0465254 -0.450544 -0.38001928 -0.12900597
000130 0c 1d 00 bf b1 6d 1f 3d de a4 f3 bd 7b eb 86 be
       -0.5004432 0.03892297 -0.1189668 -0.26351532
000140 ed 77 34 bf 40 2d c2 be 6d 6c e5 be b9 e0 1a bf
       -0.7049549 -0.37925148 -0.44809285 -0.6049915
000150 f7 91 e2 be 7c 38 35 3e a5 5d 19 bf 2d f4 0f be
       -0.44251987 0.17697328 -0.59908515 -0.1405799
000160 ec 6f 01 bf 73 2d e6 be e2 39 b6 be ca b6 26 bf
       -0.50561404 -0.4495655 -0.35591036 -0.65122664
000170 92 1e 2b bf 63 cc a4 3e dc 15 2b bf 5f f7 15 be
       -0.6684352 0.32187185 -0.6683023 -0.14645146
000180 b5 e9 65 bf 9a 0e bd be ab 19 bd be 08 ac 36 be
       -0.89809734 -0.36925203 -0.36933646 -0.17839062
000190 42 3f 06 bf 3c 3d 62 3e 71 1c 2f be a7 3e 95 bd
       -0.52440274 0.22093672 -0.17100693 -0.072873406
0001a0 ee dc 2b 3f e1 dc a0 bf 75 ce 06 3f 5c fd e0 bf
       0.67133987 -1.2567407 0.5265878 -1.7577319
0001b0 57 df 20 3f 0d 43 2e 3e be 8e 06 bf b8 b3 9d bf
       0.6284079 0.17017765 -0.5256156 -1.2320471

l3.bias f4 [14]
000000 f7 76 87 be 3c ae bb bd ae 8f 3a 3d c2 fe 96 3e
       -0.2645795 -0.09164092 0.04554718 0.2949124
000010 f5 d0 01 3f 98 7f 94 be 28 12 b4 be 61 ce 3c be
       0.5070947 -0.29003596 -0.35170102 -0.18438102
000020 e3 08 82 3e d9 0c ab be 69 7e d5 bd e2 9c 8b be
       0.25397405 -0.3340824 -0.104245014 -0.2726813
000030 3e fb 6e be ba 5a 8f 3e
       -0.23338029 0.27998906
